myhand.tflite (tflite, 421324 bytes, 6 tensors)

sequential_1/dense_5/MatMul;sequential_1/dense_5/BiasAdd f4 [10]
0	0xc036b23f	-2.8546293
1	0xbfef1641	-1.8678666
2	0xbe34c0b1	-0.17651631
3	0x402cb1ab	2.698344
4	0x3fadeb08	1.3587351
5	0x3f957b50	1.1678257
6	0xbea34de0	-0.3189535
7	0x3ec55cde	0.38547415
8	0x3fbfef66	1.4994934
9	0xc027b916	-2.6206717

sequential_1/batch_normalization_1/batchnorm/mul_1;sequential_1/batch_normalization_1/batchnorm/add_1;sequential_1/dense_5/MatMul;sequential_1/dense_5/BiasAdd f4 [10, 30]
0	0xbc9fb371	-0.019494744
1	0xbfd43604	-1.6578984
2	0x3fa89ab2	1.3172209
3	0x3fc7bac9	1.5603877
4	0x400e431f	2.2228467
5	0xbe2e4168	-0.17017138
6	0x3ee6e2e3	0.45094976
7	0x3fbdebe7	1.4837617
8	0xbe4a14ed	-0.19734545
9	0xbf840087	-1.0312661
10	0x3fdc9283	1.7232212
11	0x3df3f92e	0.11912762
12	0x3fa80660	1.3126945
13	0xbfe5c716	-1.7951381
14	0xbf955065	-1.166516
15	0xbf97d304	-1.1861272
16	0x4007ed7c	2.12387
17	0x3fdfebb7	1.749381
18	0x40206b3c	2.506545
19	0xbf28e302	-0.65971386
20	0x3fd6e7d5	1.67895
21	0xbfa05815	-1.252688
22	0xc0084315	-2.1290944
23	0xc0095f47	-2.1464403
24	0xbe28794b	-0.1645252
25	0x3fa51602	1.2897341
26	0x3fa3c3af	1.2794093
27	0x4008226c	2.127101
28	0x3ec475e7	0.38371202
29	0x3fc5d0e3	1.5454372
30	0xbfb879ec	-1.4412208
31	0x3fab079e	1.33617
32	0x40006c28	2.0066013
33	0xbfe1067c	-1.7580104
34	0x4008afcb	2.1357296
35	0xbfdffec5	-1.7499624
36	0x3f39d81b	0.72595376
37	0xbf84ff6e	-1.0390451
38	0x3fc3fab6	1.5310886
39	0x401bb13a	2.432692
40	0xbfd8e62a	-1.694524
41	0x40031418	2.0481014
42	0x3fb3e63d	1.4054638
43	0xbe1f3355	-0.15546925
44	0xbee50804	-0.44732678
45	0x3fc6870b	1.5509962
46	0x3ec8b5dd	0.3920125
47	0x3f0a164c	0.5394027
48	0x3eb78d4c	0.35849988
49	0x3f84c9c2	1.0374072
50	0x3d91a8d4	0.071122795
51	0xbfbb722c	-1.4644217
52	0x40267dfa	2.601439
53	0x4019df25	2.4042447
54	0xc011d609	-2.2786887
55	0x3ffde87d	1.9836575
56	0xbe88b302	-0.26699072
57	0xc0598a18	-3.3990536
58	0x3f3d1cbf	0.7387199
59	0xc02326bd	-2.5492394
60	0xbeb35940	-0.3502903
61	0xbfa2c8dd	-1.2717549
62	0x3ff62ac4	1.9231801
63	0xbfc17de2	-1.5116541
64	0xbfb01b4a	-1.3758328
65	0xbfa3890c	-1.2776198
66	0xbffd096c	-1.97685
67	0x3fd77d49	1.6835109
68	0xbff6fb01	-1.929535
69	0x3ebc36c3	0.3676053
70	0x3fd4a35c	1.6612353
71	0x40102219	2.2520812
72	0x3fc917ec	1.5710425
73	0x3f24c9d5	0.6437047
74	0x3faca912	1.3489096
75	0xbed04324	-0.40676224
76	0xbf86c9f4	-1.0530381
77	0xbfe157e3	-1.7604946
78	0xbfde10e1	-1.7348901
79	0x3eb6ee90	0.35728884
80	0x3fc52dd5	1.5404612
81	0x3faad131	1.334509
82	0xc035ff98	-2.8437252
83	0xbecde103	-0.40210733
84	0xbf55a19e	-0.83449733
85	0x3e969536	0.29410714
86	0xc0394b4a	-2.8952203
87	0x3ff30a52	1.8987525
88	0xbf9fb149	-1.2475978
89	0x3fc621ab	1.5479025
90	0x3fd2f291	1.6480275
91	0xbfb1ce0e	-1.3891008
92	0x3f4c9f2a	0.79930365
93	0x3f242ccc	0.64130855
94	0x40159841	2.3374178
95	0xbfd9e682	-1.702347
96	0xbfb89243	-1.4419636
97	0xbfd73bf8	-1.6815176
98	0xc0236420	-2.5529861
99	0xbfcc3d99	-1.5956298
100	0xbee983f6	-0.4560849
101	0xbec97874	-0.3934971
102	0xbfaf76c8	-1.3708124
103	0x3fafb572	1.3727248
104	0xbe872dae	-0.26402038
105	0x4017f887	2.374544
106	0xc0048811	-2.0708048
107	0xbf830658	-1.0236311
108	0xbfad4a1a	-1.3538239
109	0x3fc5492b	1.5412954
110	0xbfd1e4db	-1.6397966
111	0x3f3f488a	0.7472006
112	0x3dba4a6f	0.09096228
113	0xbf92f3c2	-1.1480639
114	0x400dc75e	2.2152934
115	0xbf364e10	-0.71212864
116	0xbe72e3a6	-0.23719653
117	0xc03503f1	-2.8283656
118	0xbfcf176b	-1.6179022
119	0x3f15be2b	0.584933
120	0xbffd5982	-1.9792941
121	0x3f00cc91	0.50312144
122	0x3ea9bf56	0.3315379
123	0x3ff193cd	1.887323
124	0xbfb77b9c	-1.4334598
125	0xbf856a98	-1.0423155
126	0x3f980da0	1.1879158
127	0x3fe780b3	1.8086151
128	0x402ddece	2.716724
129	0x402cbe16	2.699102
130	0xbbc74c18	-0.006082069
131	0x3d8fe19c	0.070254534
132	0xbf7730ca	-0.9655882
133	0x3fd2748c	1.6441817
134	0x3e396bfa	0.18107596
135	0xbfcb3fbe	-1.5878828
136	0xc0192f0f	-2.3934972
137	0x3fb8ed9d	1.4447514
138	0xbfd7b6c1	-1.6852647
139	0xbfc4c2ff	-1.5372008
140	0xbfe9da49	-1.826974
141	0x3e9fb9bd	0.31196395
142	0x3f7981fa	0.97463953
143	0xbfadb949	-1.357217
144	0xbfe1340c	-1.7594008
145	0xc01fda43	-2.4976966
146	0xbf117dd4	-0.56832623
147	0xc00820e5	-2.1270077
148	0x3f9efa8c	1.2420211
149	0xc02a7a90	-2.6637306
150	0xbff7725a	-1.9331772
151	0xbffc9c42	-1.9735186
152	0xbf40efc5	-0.7536586
153	0x3fdd2f5d	1.7280079
154	0xbfa7e5f8	-1.3117056
155	0x40064e4d	2.098529
156	0x3fa027c0	1.2512131
157	0xbf3f1ae9	-0.74650437
158	0x4019ff3e	2.4062037
159	0xbf9d1c93	-1.2274345
160	0xc001c669	-2.027735
161	0x3fb03f54	1.3769326
162	0x3fa6983a	1.3015206
163	0xbe8c8fba	-0.27453405
164	0xbfa1c4ce	-1.2638185
165	0x3fe89027	1.8168992
166	0xc01d4b15	-2.4577076
167	0x3faf7e18	1.3710356
168	0x3f9f3fb0	1.2441311
169	0x3fc9bfd5	1.5761667
170	0xbfdca0fe	-1.7236631
171	0xbf87bd8b	-1.0604719
172	0xc03f8c72	-2.992947
173	0xbf4b6b61	-0.7946072
174	0x4006cc0d	2.1062043
175	0x3fc39e74	1.5282731
176	0x3e8f7fea	0.28027278
177	0xc023fa0e	-2.5621371
178	0xbfd785b6	-1.683768
179	0xbfc7316a	-1.5561955
180	0xc018ea6c	-2.389308
181	0xbf0bf455	-0.54669696
182	0xbf83ed98	-1.0306883
183	0x3fe25331	1.7681638
184	0xbf53c5bf	-0.8272361
185	0x3fea2441	1.8292314
186	0x40005c7b	2.0056446
187	0xbfe15491	-1.7603933
188	0xbfe6920d	-1.8013321
189	0x3f786173	0.97023696
190	0x3fc39166	1.5278747
191	0xbb712df5	-0.0036801074
192	0x3fbb0d52	1.461344
193	0x3f5b2e69	0.8561769
194	0xbfce51b6	-1.6118686
195	0xbeba16ab	-0.3634542
196	0x400ecbbb	2.2311847
197	0xbf519cf6	-0.8188013
198	0xbef12437	-0.47097942
199	0x3fbf761b	1.4957918
200	0x3f2ffa3e	0.68741214
201	0xbee0c4bc	-0.43900096
202	0xc0489dd9	-3.1346343
203	0x3fd91dec	1.6962256
204	0xbfda79cb	-1.7068418
205	0xc0157f3f	-2.3358915
206	0xbf7a154c	-0.97688746
207	0xbf7c2842	-0.9849893
208	0x3f2f238a	0.68413603
209	0x403eb610	2.9798622
210	0x3f98e879	1.1945945
211	0x3fe6622a	1.7998707
212	0xbf4bebac	-0.7965648
213	0xbf1dc6f4	-0.61631703
214	0xbf805a7b	-1.0027612
215	0x3f893ca6	1.0721633
216	0xc02e7820	-2.7260818
217	0xbf2fa2df	-0.68607897
218	0xbfdc42be	-1.7207868
219	0x3eba830a	0.364281
220	0xc031ac33	-2.7761352
221	0x3fa387d5	1.2775828
222	0x3eecb3e8	0.46231008
223	0xbf8f858e	-1.1212633
224	0x3f9dbe0c	1.2323623
225	0xbf304476	-0.68854463
226	0x40050fe3	2.0790946
227	0xbf662699	-0.89902645
228	0x3fee5ac4	1.862145
229	0xbf6775ff	-0.9041442
230	0x3f8d4615	1.1037012
231	0x3fc837a9	1.5641986
232	0xbfd94643	-1.6974567
233	0xbfb8ddd0	-1.4442692
234	0x3fb7c5a2	1.4357188
235	0xbff68850	-1.9260349
236	0xbf01dd51	-0.5072833
237	0xbfff6f21	-1.9955789
238	0x3fbf55ff	1.4948119
239	0xc016ce6e	-2.3563495
240	0xbf74b88e	-0.9559411
241	0xbfc4d380	-1.5377045
242	0xbfc9dad3	-1.5769905
243	0xbfafae7d	-1.3725125
244	0xbfa4872f	-1.2853755
245	0xbeeb6404	-0.45974743
246	0xbfc9139a	-1.5709107
247	0xbfb6eaf0	-1.4290447
248	0x402326cd	2.5492432
249	0xbd49d11f	-0.0492717
250	0x3ffcb377	1.9742268
251	0x3fc07ddf	1.5038413
252	0x3f698e14	0.9123242
253	0xbfd217d6	-1.6413524
254	0xbff56ce2	-1.9173853
255	0x3fbd1872	1.4773085

sequential_1/dense_4/BiasAdd/ReadVariableOp f4 [30]
0	0x3e4cfdf6	0.20018753
1	0x3e071c6f	0.1319444
2	0x3dfbf0de	0.12301801
3	0x3e37eede	0.17962214
4	0x3e255785	0.16146667
5	0x3e45002a	0.19238344
6	0x3e2622a3	0.1622415
7	0x3e5908af	0.21194719
8	0x3e488b13	0.19584303
9	0x3e1c0028	0.15234435
10	0x3eaad323	0.3336421
11	0x3e0c3ce1	0.13695098
12	0x3e3bfcd6	0.18358168
13	0x3e1603a0	0.1464982
14	0x3e44f7c3	0.19235139
15	0x3e75841a	0.23976174
16	0x3e70b5c4	0.23506838
17	0x3e3dddb9	0.18541612
18	0x3e3f7901	0.18698503
19	0x3e4b991b	0.19882624
20	0x3e20133f	0.15632342
21	0x3e171ae2	0.14756349
22	0x3e5a035d	0.21290345
23	0x3d403ec8	0.046934873
24	0x3e20c6cc	0.15700835
25	0x3e4846d2	0.19558266
26	0x3e3d74c6	0.18501577
27	0x3e82c94f	0.2554421
28	0x3e520f0c	0.20513552
29	0x3e8311b4	0.25599444

sequential_1/dense_3/BiasAdd/ReadVariableOp f4 [128]
0	0x3bc52248	0.0060160495
1	0x3d845cbb	0.064629994
2	0xbcec8fe4	-0.028877206
3	0x3d5e2ac5	0.054240007
4	0xbd3f4f40	-0.046706438
5	0xbc4589f6	-0.012056818
6	0x3b81e6ac	0.003964266
7	0xbc9aa124	-0.018875666
8	0x3d93b7c0	0.07212782
9	0x3c15d522	0.009145053
10	0x3c8aef96	0.016959947
11	0xbae94da3	-0.0017799627
12	0x3d3e4d3c	0.046460375
13	0xbc13aa45	-0.009012763
14	0xbd5bc3d5	-0.053653557
15	0x3d8a0cf7	0.06740754
16	0x3c1a7c98	0.0094291195
17	0x3d4e8033	0.05041523
18	0x3d082843	0.03324152
19	0x3b444901	0.002995074
20	0xbd98602b	-0.074402176
21	0x3c01ab4a	0.007914374
22	0x3a9a5a96	0.0011776264
23	0xbc54c5b2	-0.012986587
24	0x3d6373d9	0.055530403
25	0x3c9b0408	0.01892282
26	0x3cd0ee2f	0.0255042
27	0x3dfc1ec1	0.12310553
28	0x3d30f2a8	0.043200165
29	0xbcb2a59b	-0.021807482
30	0x3cb02326	0.021501135
31	0xbd0e18ac	-0.034691498
32	0xbc11f290	-0.008907929
33	0x3d26e54a	0.04074601
34	0xbd2a37b1	-0.041557018
35	0x3ab2a013	0.0013628028
36	0xbc5173d5	-0.012783964
37	0xbcb68e8e	-0.022284772
38	0x3d001f48	0.031279832
39	0xbc301615	-0.010747452
40	0x3c2acf9e	0.010425476
41	0x3d7a3a05	0.061090488
42	0x3d21c779	0.039496873
43	0xbc171d20	-0.009223253
44	0xbc8cee1b	-0.017203381
45	0xbda0e446	-0.0785604
46	0x3d35d3e5	0.04439153
47	0x3d64ae7b	0.05583046
48	0xbcaecff0	-0.021339387
49	0xbc0b6f39	-0.008510404
50	0x3b74abe6	0.0037333905
51	0x3bf6d0ad	0.0075322003
52	0xbc6b110f	-0.014347329
53	0x3ca6c23f	0.020356296
54	0x3c919731	0.017772289
55	0x3d07ff56	0.03320249
56	0xbd502a9c	-0.050821885
57	0xbd4a556b	-0.049397867
58	0xbc2f2233	-0.010689306
59	0x3be41332	0.006960296
60	0x3c671529	0.014104166
61	0xbc121219	-0.008915448
62	0x3d6cccbb	0.057812434
63	0x3d5b359d	0.053517926
64	0xbd925eeb	-0.071470104
65	0x3d3069c2	0.04306961
66	0x3ac93a4f	0.001535246
67	0xbc909b85	-0.017652282
68	0x3d831c9b	0.064019404
69	0x3c5775fb	0.013150687
70	0x3d5afb85	0.053462524
71	0x3cdf5ba3	0.027265375
72	0xbcb8ad97	-0.022543712
73	0xbcb58f8f	-0.02216318
74	0x3d2b79c6	0.04186418
75	0x3c5765d7	0.013146839
76	0x3d730c4d	0.059337903
77	0x3d297d1d	0.041379083
78	0xbd12c3ef	-0.035831388
79	0xbe0e5214	-0.13898498
80	0x3cb589e0	0.02216047
81	0xbc412242	-0.011787953
82	0xbdcac2ed	-0.099004604
83	0xbd393f7d	-0.045226563
84	0x3c689ab0	0.014197037
85	0x3ccfab7d	0.025350327
86	0xbde80502	-0.1132908
87	0x3d6947ce	0.056953244
88	0xbd6b9ff7	-0.0575256
89	0x3d075e41	0.033048872
90	0x3c301394	0.010746855
91	0xbc3b5b3f	-0.011435329
92	0x3bd5df41	0.006526858
93	0x3ce0e4ca	0.027452845
94	0xbdbd64cd	-0.09247742
95	0xbcdeaa81	-0.027180912
96	0x3b8409a6	0.0040294705
97	0xbd3f7ffe	-0.046752922
98	0xbd1e430b	-0.038638156
99	0xbdba4e29	-0.09096939
100	0x3c6298fe	0.0138304215
101	0x3db64748	0.089003146
102	0xbdec3e31	-0.115352996
103	0x3d90ea1a	0.07075901
104	0x3b269672	0.0025419262
105	0x3d1a450e	0.037663512
106	0xbca5ac29	-0.020223694
107	0x3c947c54	0.01812569
108	0x3cc855c4	0.024454959
109	0x3da245c4	0.07923463
110	0x3d81cb6f	0.0633763
111	0x3d2990d8	0.0413979
112	0xbca52089	-0.020157116
113	0x3c931c11	0.017957719
114	0x3cf10621	0.029421868
115	0x3cafafca	0.021446127
116	0x3c241f74	0.010017265
117	0xbb49ea3b	-0.0030809778
118	0x3b990347	0.00466958
119	0xbc9ee870	-0.019397944
120	0x3b0d8b53	0.0021597936
121	0xba77a33a	-0.0009446625
122	0x3d953852	0.07286133
123	0xbc0c029a	-0.008545542
124	0x3bc53ada	0.0060189785
125	0x3d82017b	0.063479386
126	0x3d48b9a4	0.049005166
127	0xbd0d798e	-0.03453975

sequential_1/dense_3/MatMul f4 [128, 784]
0	0xbd4d47ab	-0.050117176
1	0x3d84a3cd	0.06476555
2	0xbc48c9f8	-0.012255184
3	0xbcc68b60	-0.024236381
4	0x3d2bef50	0.041976273
5	0x3b8a9620	0.004229322
6	0xbd10385c	-0.03521
7	0x3b005e80	0.0019587576
8	0x3ce874f0	0.028376073
9	0x3cee2fd4	0.02907554
10	0xbcba5d28	-0.022749498
11	0x3d51d4c2	0.051228292
12	0xbb9a08a9	-0.0047007394
13	0x3c8b179d	0.016979033
14	0xbd9af896	-0.07566945
15	0x3c587e08	0.013213642
16	0xbd558912	-0.052132674
17	0xbcf0eaf6	-0.029408913
18	0xbd3ab6d8	-0.04558453
19	0x3d84b08f	0.064789884
20	0xbd854f9b	-0.06509324
21	0x3d01c008	0.031677276
22	0x3d9ce819	0.076614566
23	0x3ced1500	0.028940678
24	0x3d47ff6e	0.04882758
25	0x3d41351a	0.047169782
26	0x3c636278	0.013878457
27	0x3d28f798	0.04125175
28	0x3d28e7e0	0.04123676
29	0xbd94cec2	-0.072659984
30	0x3d1924f6	0.037388764
31	0x3d4678e6	0.04845514
32	0xbd87b517	-0.06626337
33	0x3cf691c4	0.030098803
34	0x3c45e98e	0.01207961
35	0x3d6444f1	0.05572981
36	0xbc747628	-0.014920749
37	0xbbcc912a	-0.006242891
38	0xb7602548	-1.3360121e-05
39	0xbd921515	-0.07132927
40	0xbd9f6322	-0.0778258
41	0xbd6cfcc2	-0.057858236
42	0xbdb89eda	-0.090146735
43	0xbca5b565	-0.020228097
44	0xbc874ec4	-0.01651705
45	0x3c83df92	0.016097818
46	0x3caaa6c1	0.020831468
47	0x3ccdc882	0.025120024
48	0x3bd7a8b9	0.0065813926
49	0x3d04f9d9	0.032464836
50	0xbdaaef28	-0.08346397
51	0xbd5354d5	-0.051594574
52	0xbc65e6e8	-0.014032103
53	0x3d8d4465	0.06897811
54	0xbd9df631	-0.07712973
55	0x3ca1c7c8	0.019748583
56	0xbd865b67	-0.06560402
57	0x3d057ce4	0.032589808
58	0x3c9f4179	0.0194404
59	0xbd719abb	-0.058985453
60	0x3aadf170	0.0013270807
61	0xbd02b501	-0.0319109
62	0xbb9c9c61	-0.004779384
63	0x3d501ba9	0.05080763
64	0xbd816268	-0.06317598
65	0xbb4a71d9	-0.0030890612
66	0xbd1a8c4a	-0.037731446
67	0xb9822646	-0.00024824048
68	0x3dc9b6a6	0.098492905
69	0x3d6c9b23	0.057765137
70	0x3d58fc12	0.052974768
71	0x3d720e49	0.059095655
72	0x3ce0c475	0.027437428
73	0x3c18b37b	0.009320135
74	0x3da09c81	0.07842351
75	0x3db0b88b	0.08628949
76	0x3c005cf0	0.007834658
77	0xbd3bbaa9	-0.04583231
78	0x3d021805	0.031761188
79	0x3bc545af	0.00602027
80	0x3d9426ab	0.07233938
81	0x3d646be0	0.05576694
82	0xbc8efd30	-0.017454714
83	0x3d696d56	0.056989037
84	0x3bed3f90	0.0072402433
85	0xbd33308c	-0.04374747
86	0x3d8020f2	0.06256284
87	0xbce7382c	-0.028225027
88	0xbd9b6945	-0.07588438
89	0xbd88fa97	-0.06688421
90	0x3d904ecc	0.07046279
91	0xbd0322d0	-0.03201562
92	0xbde250cc	-0.11050567
93	0xbcc1570a	-0.023601074
94	0x3d4b6679	0.049658272
95	0x3c963e00	0.01834011
96	0xbc77a483	-0.015114906
97	0x3ab24135	0.0013599755
98	0x3cb7eda2	0.02245218
99	0xbcba253e	-0.022722837
100	0x3c944339	0.01809846
101	0xbc8c358c	-0.017115377
102	0x3d898d73	0.067164324
103	0x3cbd2936	0.02309094
104	0xbd188288	-0.03723386
105	0xbd8f89fc	-0.0700874
106	0xbd0e49f9	-0.034738515
107	0xbc54869a	-0.012971545
108	0x3d8fef56	0.070280716
109	0xbd1ec7ef	-0.03876489
110	0x3c2602ce	0.010132505
111	0x3d00768a	0.031363048
112	0x3cb8a788	0.022540823
113	0x3da14eae	0.07876335
114	0xbda337dc	-0.07969639
115	0xbd041825	-0.03224959
116	0x3cfe0c6d	0.031011784
117	0x3d470022	0.04858411
118	0x3debaa7a	0.11507125
119	0x3cce6a7e	0.025197264
120	0xbc6764f9	-0.014123195
121	0xbd523435	-0.05131932
122	0xbcdaa4e7	-0.02668996
123	0xbd472ae2	-0.04862488
124	0x379d5fb4	1.8760424e-05
125	0x3c6dd2d3	0.014515596
126	0x3d0994d9	0.033589218
127	0x3d0f63a3	0.03500713
128	0xbcf32ca2	-0.029684369
129	0x3dcc0345	0.09961561
130	0xbd3159f1	-0.043298665
131	0xbd00f582	-0.031484134
132	0xbd168b94	-0.036754206
133	0xbda0fefd	-0.07861135
134	0xbdd2a986	-0.1028624
135	0xbd61070d	-0.054938365
136	0xbbe6821b	-0.0070345527
137	0xbc67d655	-0.014150222
138	0x3d95f084	0.07321265
139	0xbd68a04b	-0.056793492
140	0x3b6ecae0	0.003643684
141	0x3d3efb2e	0.046626262
142	0x3dbde9ea	0.09273131
143	0xbc8f3637	-0.017481906
144	0x3da097fc	0.07841489
145	0x3db6cba8	0.08925563
146	0xbcaf264a	-0.021380562
147	0x3c9a7824	0.018856116
148	0x3ded2a17	0.115802936
149	0x3d34e0d7	0.044159736
150	0x3bf3af88	0.0074366964
151	0x3ac6521d	0.0015130673
152	0x3d5447e7	0.051826384
153	0xbd6898df	-0.056786414
154	0xbb02df72	-0.001996961
155	0x3d188e75	0.037245233
156	0xbdcd6196	-0.10028379
157	0xbde075f9	-0.109600015
158	0x3d27ee1c	0.040998563
159	0xbd5389b9	-0.051645014
160	0xbd99e70d	-0.075147726
161	0xbd9fece7	-0.078088574
162	0xbce1677f	-0.027515171
163	0x3b87a6a4	0.004139738
164	0xbdcb614d	-0.09930668
165	0xbdb897f2	-0.09013356
166	0xbc845c6b	-0.01615735
167	0x3cda6406	0.026659023
168	0xbd9ff643	-0.078106426
169	0x3d120827	0.035652306
170	0x3cc52172	0.0240638
171	0x3dcbcadc	0.09950802
172	0x3ddf3a3e	0.10899781
173	0x3dd09107	0.10183912
174	0x3cd3ab4b	0.025838515
175	0xbd330102	-0.043702133
176	0x3de29ff3	0.11065664
177	0x3dded467	0.10880356
178	0xbd723870	-0.059135854
179	0xbbc75ef4	-0.0060843173
180	0x3dcab01b	0.09896871
181	0xbb8343d2	-0.0040058875
182	0xbd4551b4	-0.04817362
183	0xbcd4e1b8	-0.025986537
184	0xbda59c74	-0.08086482
185	0xbd55898b	-0.052133124
186	0xbbd2ba23	-0.0064308806
187	0xbcce2e2b	-0.025168499
188	0xbcd86b15	-0.026418248
189	0x3d8d4b25	0.06899098
190	0x3c7fc923	0.01561192
191	0xbd94c3f8	-0.072639406
192	0x3d16ffb2	0.036864944
193	0xbd9cdaea	-0.07658942
194	0xbdbf15a4	-0.093302995
195	0xbdce4588	-0.10071856
196	0xbd5b1d2c	-0.053494617
197	0x3e186767	0.14883195
198	0x3d99aa34	0.07503167
199	0x3e30b20f	0.17255424
200	0x3dad90b0	0.084748626
201	0x3d8e92f8	0.06961626
202	0xbb066a31	-0.0020510072
203	0x3ccd4cf7	0.025061114
204	0x3de7cf74	0.113188654
205	0x3d574638	0.0525572
206	0xbcdecdc9	-0.027197735
207	0x3d2aef5b	0.041732173
208	0xbda1e7f0	-0.07905567
209	0x3d3acc17	0.04560479
210	0xbdc65adf	-0.09685301
211	0xbc982c24	-0.018575735
212	0xbdcb2f5a	-0.09921141
213	0xbd937c41	-0.07201434
214	0x3d99e8da	0.07515116
215	0x3a53cd56	0.00080796087
216	0x3d6349ee	0.055490427
217	0xbc7c4ca2	-0.01539913
218	0x3d1de7ce	0.038551144
219	0xbd53b460	-0.05168569
220	0x3bfd5f65	0.007732319
221	0xbd480397	-0.04883155
222	0x3d0ec5ad	0.034856487
223	0xbc3b6192	-0.011436837
224	0xbe352835	-0.17691119
225	0x3db9944a	0.09061487
226	0x3d520616	0.051275335
227	0xb9ff7521	-0.00048724658
228	0x3d96dce7	0.073663525
229	0x3c6b0e76	0.0143467095
230	0x3d69c55b	0.05707298
231	0x3e0097b4	0.1255787
232	0xbd0b17b7	-0.033958163
233	0x3d8d7c17	0.06908434
234	0xbb3564b1	-0.0027678425
235	0x3d541ef4	0.05178733
236	0xbcc81ac8	-0.024426833
237	0x3ca94da3	0.020666903
238	0x3c949ecc	0.018142127
239	0xbd4214bc	-0.047383055
240	0xbd842c3c	-0.064537495
241	0x3d6f2d6f	0.05839294
242	0x3d10880f	0.035286006
243	0x3c2f75b6	0.010709217
244	0xbb5abd6e	-0.003337707
245	0xbc76278d	-0.015024078
246	0x3ce65234	0.02811537
247	0x3d981ecb	0.07427748
248	0xbd8942ff	-0.067022316
249	0xbd9b709a	-0.075898364
250	0xbdf523fe	-0.119697556
251	0x3d1264c3	0.035740625
252	0x3db0bda9	0.08629925
253	0x3d9b866b	0.075939976
254	0xbc5bf66b	-0.01342545
255	0x3dade9ef	0.08491885

sequential_1/dense_4/MatMul f4 [30, 128]
0	0xbc832793	-0.016010081
1	0xbcce65fc	-0.025195114
2	0x3e31bef0	0.17357993
3	0xbe6f69b5	-0.23380168
4	0x3e37c265	0.1794525
5	0xbcfea9e6	-0.031086873
6	0xbe03a959	-0.1285757
7	0xbbd33305	-0.006445291
8	0xbe1c4017	-0.15258823
9	0x3e39eb4b	0.18156163
10	0xbc20ef20	-0.009822637
11	0xbe15bc2d	-0.14622565
12	0xbc706fe9	-0.014675119
13	0x3e47dbb8	0.1951741
14	0x3e06b461	0.13154747
15	0xbd9db341	-0.077002056
16	0xbd5f8e0d	-0.05457883
17	0x3d9d8c95	0.076928295
18	0xbe31b588	-0.17354405
19	0xbe2bd41d	-0.16780134
20	0xbdbd8047	-0.092529826
21	0x3d8aa1f7	0.067691736
22	0xbd8af676	-0.0678529
23	0xbd8e1506	-0.06937604
24	0xbb2115b6	-0.002457959
25	0xbe4baf15	-0.19891007
26	0xbe08325e	-0.13300464
27	0xbe0c755b	-0.13716643
28	0xbdcfd83d	-0.10148666
29	0x3cff2029	0.031143265
30	0xbdccba89	-0.09996516
31	0x3db5c716	0.08875863
32	0xbd03d0da	-0.0321816
33	0xbdeea2b1	-0.11652125
34	0x3de8c4d7	0.11365669
35	0xbce249a9	-0.027623015
36	0x3e2ebcb5	0.17064174
37	0xbdf9a296	-0.12189214
38	0x3b959577	0.0045649367
39	0xbe02d6ae	-0.12777206
40	0xbd47436f	-0.048648294
41	0xbe0414d4	-0.1289857
42	0xbc5b41fa	-0.013382429
43	0x3c9383a6	0.01800711
44	0x3df96958	0.12178296
45	0x3e04c293	0.12964849
46	0xbc750000	-0.014953613
47	0xbd9b10f4	-0.07571593
48	0x3c181785	0.009282951
49	0x3e1b6264	0.15174252
50	0x3dea9ff3	0.11456289
51	0x3e24cbdb	0.1609339
52	0xbd8ce3af	-0.06879365
53	0x3d87f848	0.06639153
54	0x3e29e3b4	0.16590768
55	0x3e2a4489	0.16627707
56	0x3d276ece	0.040877156
57	0x3de61c76	0.11235897
58	0xbc9b1f30	-0.01893577
59	0x3ce8a215	0.0283976
60	0x3d8d62f6	0.06903641
61	0xbe2b0f40	-0.16705036
62	0xbd97ef1b	-0.074186526
63	0xbe62897e	-0.22122762
64	0x3deb82e4	0.11499575
65	0xbe850612	-0.25981194
66	0x3e25f9bf	0.16208552
67	0xbe2e4483	-0.17018323
68	0x3d7df03d	0.061996687
69	0x3da54e65	0.08071593
70	0xbd675b29	-0.05648342
71	0x3da59839	0.08085675
72	0xbe241455	-0.16023381
73	0x3d3b8de6	0.04578962
74	0x3e02b4be	0.1276426
75	0xbe008f80	-0.12554741
76	0xbe8d04ec	-0.27542818
77	0x3e27aa6d	0.16373606
78	0x3e180f45	0.14849575
79	0x3d39dba3	0.045375478
80	0x3d97a31a	0.07404156
81	0x3d835aa3	0.06413772
82	0xbc1be640	-0.009515345
83	0x3de8693f	0.11348199
84	0xbd97c98c	-0.07411489
85	0xba999dc2	-0.0011719989
86	0x3e3b6f10	0.18304086
87	0xbe4ea658	-0.20180643
88	0xbcf7c26a	-0.030244071
89	0xbd1776de	-0.036978595
90	0xbc5d4ee2	-0.013507577
91	0x3ba45dcc	0.0050160643
92	0x3c50edb6	0.012751987
93	0x3b915bb0	0.004435979
94	0x3b5624d5	0.0032675762
95	0x39ffa9a6	0.00048763788
96	0xbc4a8138	-0.01235991
97	0x3db22af4	0.08699599
98	0xbd949223	-0.07254436
99	0x3c503104	0.012706999
100	0x3e5b1b7d	0.21397205
101	0xbea7f668	-0.3280518
102	0x3e109854	0.14120609
103	0x3d059323	0.032611024
104	0xbdc3ab0f	-0.09554111
105	0x3d6f60c3	0.05844189
106	0x3e81ab64	0.25326073
107	0x3cc2ea52	0.023793373
108	0x3de35dd1	0.111018784
109	0xbd50908d	-0.050919104
110	0x3d959a96	0.073048756
111	0xbb973def	-0.0046155374
112	0x3d3f2c89	0.04667333
113	0x3daa0852	0.08302368
114	0x3e5e58dc	0.21713585
115	0xbd3ace4b	-0.045606893
116	0x3d723a66	0.059137724
117	0xbb62642e	-0.0034544575
118	0x3d134618	0.03595552
119	0x3d842405	0.06452183
120	0x3cab0837	0.02087794
121	0xbd95c04d	-0.07312069
122	0xbdd7a3be	-0.10529278
123	0xbcd845c3	-0.026400452
124	0xbdb8153b	-0.089884244
125	0x3c8fbf39	0.017547237
126	0x3d0ce0cf	0.03439408
127	0x3db2e5d1	0.0873524
128	0x3dcd83ff	0.10034942
129	0xbd5bb0ca	-0.053635396
130	0x3c40e762	0.011773916
131	0x3e0f5396	0.13996729
132	0xbe7033b8	-0.23457229
133	0x3e309da6	0.17247638
134	0xbe1e3e11	-0.15453364
135	0x3d904e06	0.07046132
136	0xbe3d5846	-0.18490705
137	0x3ddcea67	0.10786896
138	0xbb989c7c	-0.0046573263
139	0x3de545ba	0.1119494
140	0xbca15714	-0.019694842
141	0x3ac4e5fc	0.0015022154
142	0xbd38a2eb	-0.045077246
143	0x3e337bb1	0.17527653
144	0x3de7deba	0.113217786
145	0xbc98f39e	-0.018670853
146	0x3d85df0f	0.06536686
147	0xbd3f4c8b	-0.046703856
148	0xbe832130	-0.25611258
149	0x3de5556e	0.11197935
150	0x3d3d7a2f	0.0462591
151	0x3d1050e2	0.035233386
152	0x3e19fce6	0.1503788
153	0xbe5b045d	-0.21388383
154	0x3cf49777	0.02985738
155	0xbc900f48	-0.017585412
156	0xbe5f7cb1	-0.2182491
157	0x3d9fc415	0.078010716
158	0x3e0c29fd	0.13687892
159	0xbe0b4f66	-0.13604507
160	0x3e3106ee	0.172878
161	0x3e5ee45e	0.21766803
162	0x3e2afca4	0.16697937
163	0x3e69620b	0.22791307
164	0xbd23d798	-0.040000528
165	0x3dffc7c1	0.12489272
166	0xbe1f1a25	-0.15537317
167	0x3d02b72c	0.031912968
168	0x3ddc3376	0.10752003
169	0x3dc2c0f6	0.09509461
170	0x3c994079	0.0187075
171	0xbde4f257	-0.11179035
172	0x3e19b714	0.15011245
173	0x3d8460b1	0.06463755
174	0x3e51b2ed	0.20478411
175	0xbba67d33	-0.005080843
176	0xbd86262a	-0.06550248
177	0xbaafe8d2	-0.0013420826
178	0xba82cb58	-0.0009978814
179	0x3e204373	0.1565073
180	0xbda90f2d	-0.08254848
181	0x3b18a7a6	0.0023293286
182	0x3dd8e45c	0.10590431
183	0x3e0f36d0	0.13985753
184	0x3b7c32ea	0.0038482496
185	0x3d216b23	0.039408814
186	0xbd72b736	-0.059256755
187	0x3d26c0c0	0.040711164
188	0xbdb5f25d	-0.08884118
189	0x3e90e9eb	0.28303465
190	0x3e6a68be	0.22891518
191	0x3e27fa29	0.16404022
192	0xbd741bcf	-0.059596833
193	0xbe65b9ed	-0.22434206
194	0x3e249269	0.16071476
195	0xbe28213f	-0.16418932
196	0x3e44b37e	0.19209096
197	0xbd05310b	-0.032517474
198	0xbde815a7	-0.11332255
199	0x3d967b8d	0.07347784
200	0x3dbc1ddf	0.09185385
201	0x3d3d3ecf	0.046202477
202	0xbe1abbce	-0.15110704
203	0x3e0e75e2	0.13912156
204	0xbe1f5e87	-0.15563403
205	0x3c39103d	0.011295375
206	0x3dbe7b8c	0.093009084
207	0xbe525f16	-0.20544085
208	0x3e3505f0	0.17678046
209	0x3cee5454	0.029092945
210	0x3d32747c	0.04356812
211	0x3bc146d0	0.005898334
212	0xbd2fd570	-0.04292816
213	0x3e252300	0.16126633
214	0xbda3a289	-0.079899855
215	0x3d5425a5	0.051793713
216	0x3e047e75	0.12938865
217	0xbd8f622d	-0.070011474
218	0x3dc9b6a7	0.09849291
219	0xbe11a1de	-0.14221904
220	0xbde21888	-0.11039835
221	0xbddcbbae	-0.107779846
222	0xbd92cc38	-0.07167858
223	0xbcc701e0	-0.024292886
224	0x3da0b6fa	0.078474
225	0xbc08dd12	-0.0083534885
226	0xbcce8417	-0.02520947
227	0xbd844ada	-0.06459589
228	0x3e97cf31	0.29650262
229	0xbe1ac166	-0.15112838
230	0xbd569c20	-0.052394986
231	0x3b71d0a3	0.0036898039
232	0x3db6d3ad	0.08927093
233	0x3d35dacd	0.044398118
234	0x3e33df85	0.17565735
235	0x3e3a8bbe	0.1821737
236	0xbbc43248	-0.0059874393
237	0x3dac1f84	0.08404449
238	0xbcf3de6c	-0.029769145
239	0xbe6a6d4e	-0.22893259
240	0x3c0c8581	0.008576752
241	0x3dfc9f15	0.1233503
242	0x3c7baf74	0.0153616555
243	0xbe0bcff1	-0.13653542
244	0x3d859cb3	0.06524029
245	0xbe21a81b	-0.15786783
246	0xbd236559	-0.039891575
247	0x3c40d756	0.01177009
248	0x3e1dfd3d	0.15428634
249	0xbe2054b4	-0.15657312
250	0xbe169a87	-0.14707385
251	0xbd815224	-0.06314495
252	0x3b9468df	0.004529103
253	0x3df6c452	0.12049164
254	0x3e041ed5	0.12902386
255	0xbdaba8c3	-0.08381798
